src02/color_vec/params/fnn768dim2rgb_net.pth (torch, 780647 bytes, 6 tensors)

linear1.weight f4 [200, 768]
000000 b8 3d 6b bc 2e 5d af 3a 12 0a 0e 3d bc df a8 bb
       -0.014357977 0.001337921 0.034677573 -0.0051536243
000010 de 09 6d bb ef 03 10 bd 75 d6 88 bc 3b f8 21 bd
       -0.0036169211 -0.03516 -0.016703824 -0.03954337
000020 c0 a6 7c 3c ac 97 3d bd 84 a1 58 3d 34 e3 95 bb
       0.015420616 -0.046287224 0.05288841 -0.004574204
000030 76 42 cf 3c 0e fe 53 3c 48 47 fc 3b 22 c2 75 3c
       0.025300246 0.012938989 0.007698927 0.014999898
000040 80 2b 80 3c 02 7b 1a 3d 99 78 db 3c 92 50 44 bd
       0.015645742 0.037714966 0.026790904 -0.0479284
000050 6d 24 24 3d 7d 7a 30 bd fa b8 38 3c 07 90 c8 bc
       0.0400738 -0.043085564 0.011274571 -0.02448274
000060 fc b3 0d bb 6a 76 28 bc 5c 39 4c 3d 28 0f 52 bb
       -0.0021622172 -0.010282138 0.04985939 -0.003205249
000070 b6 f4 23 bd f3 13 de bb 10 97 0f bd b5 3c cc 3b
       -0.040028296 -0.0067772805 -0.035056174 0.006232823
000080 45 22 c6 3c b3 39 80 3c f6 2d fe 3b 68 75 af bb
       0.024186263 0.015652513 0.007756944 -0.005354572
000090 c7 79 ec b9 91 63 3f bb 47 63 22 3d f3 8a 67 3a
       -0.0004510416 -0.0029203633 0.03964546 0.0008832656
0000a0 11 a8 59 bc 3a 90 71 ba 2d 1c 8e 3c 27 0b 30 bd
       -0.013284699 -0.0009214912 0.01734742 -0.042979386
0000b0 37 81 21 bd f4 42 69 bc 30 ca 9d bc a3 41 8a bc
       -0.03942987 -0.014237154 -0.01926145 -0.016877001
0000c0 34 1e 8e bc 26 bb 0b 3d 66 b3 04 bd 22 0b 5e bd
       -0.017348386 0.034114026 -0.03239765 -0.054209836
0000d0 d1 a6 41 3c e8 89 43 bc 35 f6 5c bd 28 12 40 bb
       0.011819557 -0.011934735 -0.05394574 -0.0029307697
0000e0 f3 69 f8 3b f7 b4 da bb f1 92 0e bd 1b 78 74 bc
       0.0075809895 -0.0066744047 -0.034808103 -0.0149212135
0000f0 48 eb b8 bc 8a 4c 0e bd 47 8a 52 3d 4d d6 fe 3c
       -0.022573128 -0.034740962 0.051401403 0.031108046
000100 35 63 40 bd 0f 58 ad b7 9f 02 4e 3d 95 6b 3f 3d
       -0.04696961 -2.0664213e-05 0.05029547 0.046733458
000110 35 24 71 bc ff 86 98 bc bc bf 55 3c 60 6f 01 3c
       -0.014718105 -0.018619059 0.013046201 0.007900089
000120 7c 0b 23 bc c9 57 52 3c 08 d3 ee 3b e6 73 42 3d
       -0.009951469 0.012838312 0.0072883405 0.04747381
000130 32 01 99 bc 92 95 f0 ba 70 7a 0e bb ce 40 66 bc
       -0.018677328 -0.0018355122 -0.002174046 -0.014053537
000140 04 5b 56 3c c2 67 0c 3c ad 88 4a 3d 46 3d 35 3d
       0.013083223 0.00856966 0.04944675 0.044247888
000150 2a 6b 25 bd db 45 b2 bc 42 9f ad 3c 41 da 79 bb
       -0.040385403 -0.021761825 0.021194104 -0.0038124474
000160 b0 a9 24 bb 6a cd e1 3c 62 44 52 bc be 98 75 3c
       -0.0025125556 0.02756377 -0.012833687 0.01499003
000170 83 be d2 3b 80 68 fb 3c 91 12 58 3d 12 b6 2c 3d
       0.006431402 0.030689478 0.05275208 0.042165823
000180 72 4d 54 bd 57 9d 51 bd 32 e5 cf ba 74 73 20 bd
       -0.05183167 -0.05117544 -0.0015861152 -0.039172605
000190 e6 89 4b bb f2 99 04 bd 34 fd 0c 3d 24 ee 10 bd
       -0.0031057536 -0.032373376 0.03442116 -0.03538336
0001a0 ff 7f 30 3c d0 95 96 ba 94 b2 da ba a9 06 03 bc
       0.010772704 -0.0011488739 -0.00166853 -0.007997193
0001b0 c4 61 45 3b d2 b4 19 3c db 23 40 3b 6b 54 24 3d
       0.0030118087 0.00938149 0.0029318247 0.04011957
0001c0 0e d4 0b 3c b6 bb 4a bd 76 91 bd bb 4b 70 41 bc
       0.0085344445 -0.04949542 -0.0057851626 -0.011806558
0001d0 33 93 a5 3c 10 a3 4e bd a4 c8 6f bc 3d d9 63 3c
       0.020211792 -0.050448477 -0.014635239 0.013906774
0001e0 a6 1e 40 bd 9f 14 1c 3a 77 ea d1 3c d0 31 d9 bc
       -0.04690423 0.00059540005 0.025624497 -0.02651301
0001f0 f1 8b 4d 3c 00 80 a3 3c 44 b2 4d bb 95 84 05 bd
       0.012545572 0.019958496 -0.0031386772 -0.032597143
000200 fc b1 51 ba dc 8b 83 bc 5c 6a 6d 3c fa 1d 7c 3c
       -0.0007999239 -0.016057901 0.01449069 0.015388006
000210 92 79 de bc 55 bb dc bc 08 57 16 3a a3 9d 22 3d
       -0.027157579 -0.026944796 0.00057350146 0.039701115
000220 d4 f3 ee bc bf a6 42 3d 28 34 c8 bc da 9c 15 3d
       -0.029169 0.047522303 -0.024438933 0.03652654
000230 b7 9c 28 3d 02 8e 6b bc e5 53 d7 bb cf 13 45 3c
       0.04116508 -0.014377119 -0.0065712803 0.0120286485
000240 b0 56 84 bc ce 01 34 3d a7 43 ff bc d4 95 61 3b
       -0.016154617 0.043947034 -0.031160189 0.003442158
000250 0e b2 5e bd f4 3e fe bc 04 d8 39 bd cc c3 4a bd
       -0.054369025 -0.031035878 -0.045372024 -0.049503133
000260 15 95 58 3d 81 d7 c1 bc 54 7a fc bc 59 bf 6b 3c
       0.05287655 -0.02366233 -0.03082005 0.014388883
000270 48 ec 30 bd 0a 84 0d 3c d9 c3 cb bb a8 ab 0f bd
       -0.043194085 0.008637438 -0.006218415 -0.035075814
000280 e0 ef 1d b9 c7 2d 11 bd 04 b9 a0 bc a0 5b 02 3d
       -0.00015062047 -0.035444047 -0.019619472 0.03182566
000290 fc 8e 14 3c 12 8c 84 b9 9c 2b 41 bd 62 90 c5 bc
       0.009067293 -0.00025281362 -0.04716073 -0.024116699
0002a0 59 02 c2 3c 82 1d 84 3c 54 0a 96 3b 23 03 8f 3c
       0.02368276 0.016127352 0.004578868 0.01745755
0002b0 39 00 48 bd 93 eb 12 3d ff fb 40 3c 55 4e 04 bd
       -0.048828337 0.035869192 0.011778831 -0.032301266
0002c0 a2 95 52 bd 72 10 53 bd 11 9b 10 3c 11 fb 56 3b
       -0.051412232 -0.051529355 0.008826033 0.0032803456
0002d0 8e 51 65 bc d1 fd aa 3b 1d a0 84 3c 7e 06 1e 3b
       -0.013996495 0.0052182456 0.01618963 0.0024112756
0002e0 59 4a 1e 3c c0 d8 5f 3c 27 e7 e2 3c f4 66 3e bc
       0.009661281 0.013662517 0.027698113 -0.011621226
0002f0 07 ea 9c 3c 62 f0 05 3d 86 fe 57 3d 16 29 81 3c
       0.019154562 0.03269995 0.052732967 0.015766662
000300 ce 22 24 3c 53 fd 14 3c 04 64 be 3b 6d e4 8e 3c
       0.010018064 0.0090936 0.0058102626 0.017442906
000310 0f af d8 bc 63 6f 12 3c 42 98 b2 3b ec be 97 bb
       -0.026450662 0.0089376895 0.0054502795 -0.004630914
000320 67 e7 4b bd 13 9b a7 bb 6a e3 20 bd da fd 87 3c
       -0.04978123 -0.005114922 -0.03927938 0.016600538
000330 61 be b2 bb d3 8e cd 3c a1 5d 29 ba de 94 68 bc
       -0.005454824 0.025092518 -0.000646079 -0.014195649
000340 9f 5c 0a 3c 94 db a3 3b 0e 09 75 3c 10 0f 10 bc
       0.008444934 0.005000541 0.014955772 -0.008792654
000350 bd f8 da bc ce f5 5f bc 08 22 22 3c f1 da 68 bb
       -0.026729936 -0.013669444 0.009895809 -0.003553089
000360 c3 aa a8 bc 99 c1 19 bd 0e 24 bd bc a3 73 7b bc
       -0.020589238 -0.037538145 -0.023088481 -0.015347394
000370 ca 29 b7 bc 9c 93 5a 3b 9b 79 83 3c 0e 0a e5 ba
       -0.022358794 0.0033352142 0.016049197 -0.001747431
000380 2e 3e 2e bd 3d da e9 3c 9b 31 f7 ba 7d 1b bd bb
       -0.042539768 0.028546447 -0.0018859388 -0.005771099
000390 48 82 28 3d 16 ef 40 bc 9d 31 3e bd 2f 64 00 3b
       0.04113987 -0.0117757525 -0.046434034 0.0019590964
0003a0 a6 85 5c bd af 48 14 3d 47 9e 1f 3d cc 16 27 3d
       -0.053838395 0.03620213 0.038969304 0.040793225
0003b0 5f 23 15 3d e5 e0 fa bc 39 51 80 3c fb 3b 93 3c
       0.036410686 -0.030624816 0.01566373 0.017972937
0003c0 72 ee df 3c 2c d0 43 3b e3 4e 56 3d f7 51 f3 b8
       0.02733538 0.0029878719 0.052321326 -0.0001160241
0003d0 01 b6 ec 3b e2 fb b0 bc d5 1a 4b 3c a7 d8 0c bd
       0.007223845 -0.021604482 0.012396534 -0.034386303
0003e0 01 4a 32 bd a8 53 0b 3c 1c e7 31 3d fb 10 46 3c
       -0.043527607 0.008503832 0.043433294 0.012089009
0003f0 af ca 45 3d 88 d4 ff 3b ab 2a 0a 3d 06 fa 94 3c
       0.048288997 0.007807318 0.033732098 0.018185627

linear1.bias f4 [200]
000000 34 10 32 3d 42 da 6a bc d3 54 c9 3c 89 31 3d bc
       0.043472484 -0.014334263 0.02457658 -0.011547455
000010 03 80 bc bc 34 b8 9c bc c6 81 72 bc 27 44 c7 bc
       -0.02301026 -0.019130804 -0.014801448 -0.02432449
000020 50 5f 39 3b 38 01 a6 3c 96 d6 72 bc ff 08 fe bc
       0.002828557 0.020264253 -0.014821669 -0.031010149
000030 51 41 15 bc 45 d5 f2 3b a1 6f cc bc 87 dc 56 3d
       -0.009109811 0.0074106776 -0.024955573 0.052456405
000040 b3 48 26 3d 94 9e ff 3c c1 57 33 3d 62 b8 ee bc
       0.040596675 0.031203546 0.04378486 -0.029140655
000050 70 2e f5 3c 50 78 65 bc 35 6b f0 bc 9a 5c 0a 3d
       0.02992937 -0.0140057355 -0.029347995 0.033779718
000060 19 3e b4 3c ed f6 21 bc d8 01 94 3c 7f 37 bb 3b
       0.022002267 -0.009885532 0.018067285 0.0057134028
000070 64 3d e7 3c 40 ab 5d 3a 4a b6 15 3d 30 0f e8 3c
       0.028227516 0.0008455999 0.036550798 0.028327554
000080 62 5f 12 bd 68 3e 45 bc 0e fb c7 3c f5 b4 d7 3c
       -0.035735495 -0.012038805 0.024411704 0.026331404
000090 67 46 a2 3c 20 66 3f 3d af ad f1 bc 53 de 00 bb
       0.019808961 0.046728253 -0.029501764 -0.0019663766
0000a0 6c 2a 1b 3c 89 8d f5 bc 58 19 5a bb 20 30 51 3d
       0.009470563 -0.029974716 -0.0033279266 0.051071286
0000b0 48 33 4d 3c 44 33 a5 bc 38 a8 b1 bb 78 06 af 3b
       0.012524433 -0.020166047 -0.0054216646 0.0053413473
0000c0 70 a5 2b 3d 12 ad 43 3b e3 bb f9 3a fe f9 bf 3c
       0.04190582 0.0029857797 0.0019053187 0.023434635
0000d0 10 fb 24 3c ac f4 47 3d d4 37 ab 3c 8e 5a 13 bd
       0.010069624 0.04881732 0.020900644 -0.03597503
0000e0 c4 41 f9 3c 24 4e bd 3c b9 7e f6 3c b4 a7 fc 3c
       0.030426867 0.02310855 0.030089723 0.030841686
0000f0 f4 1b 1e bc 33 b5 09 3c ca 4f eb 3c f1 6d 07 3d
       -0.009650219 0.008405018 0.02872457 0.033063833
000100 1d a2 85 3c f5 78 99 3c 35 99 3e bb 9e 6d ce bb
       0.016312653 0.018734435 -0.0029083018 -0.0062996885
000110 09 e7 8c bc be 9d fb bc cb 28 f9 3c b9 cb e0 bc
       -0.01720001 -0.030714866 0.03041496 -0.027440893
000120 80 7b 9a b9 00 51 dc ba e4 d0 00 bd ab 66 a4 bc
       -0.00029465184 -0.0016808808 -0.031449214 -0.020068487
000130 82 8d 65 bc de 06 fd bc 63 89 16 3a 96 b9 c5 bc
       -0.014010789 -0.030887064 0.0005742518 -0.024136346
000140 d9 05 10 3d 4b 8a 5b bc 08 3c 82 3b 2c b4 a7 bc
       0.035161827 -0.013399671 0.0039744414 -0.020471655
000150 94 23 a6 3c ec a9 fb 3c 9c 33 f4 3c 5b ff 2a 3d
       0.020280637 0.030720674 0.029809766 0.041747432
000160 b8 90 05 3c 51 ef c4 3c 6d ce 84 3c 81 0b db 3b
       0.008152179 0.024039896 0.016211713 0.006684721
000170 ac ba b3 3c 2b e3 52 3d 33 89 48 3b f0 1e 03 bd
       0.021939598 0.051486176 0.0030599355 -0.032011926
000180 45 22 9d bc c0 1d 5e bc a0 87 d7 bc 93 3f b6 bb
       -0.01918138 -0.013556898 -0.026309788 -0.005561778
000190 f4 c0 b0 3c 48 2f bc 3c f2 9c f9 bc 79 dd b7 bc
       0.021576382 0.022971764 -0.030470345 -0.022444474
0001a0 87 f0 07 3d 13 30 fd 3c d7 66 08 3a 14 bc 02 3d
       0.03318837 0.030906713 0.00052033126 0.031917647
0001b0 14 8d c2 3c b5 76 10 bb 60 90 e5 3b 62 40 ee bc
       0.023748912 -0.002204341 0.007005736 -0.029083434
0001c0 3c 45 dd bb 3a 2a 57 bc b0 ab c6 bb f6 90 f3 3c
       -0.006752638 -0.013132626 -0.006062947 0.029732209
0001d0 54 a8 45 3c 53 39 90 bc 10 9a 71 3b 1c 8d c8 3c
       0.012064058 -0.01760546 0.003686551 0.024481349
0001e0 84 de bc bc 34 a3 ff bb 71 a0 3f bb ea ad 64 3c
       -0.023055322 -0.0078014378 -0.0029239918 0.01395748
0001f0 80 60 0d 3c 60 8b a8 3c 18 b2 63 3c ec 07 7d bc
       0.008628964 0.020574272 0.013897441 -0.015443783
000200 04 2c 12 bd 24 14 b0 bc 3d 2c da 3c 48 47 14 3d
       -0.035686508 -0.021493979 0.026632423 0.03620079
000210 70 09 fb 3c 1a c5 6c bc f0 cb fe bb 59 37 a7 3c
       0.030644149 -0.01445129 -0.007775776 0.020412134
000220 b9 39 9d 3a d5 a4 a2 bc 80 b4 52 3c 47 2a a1 3c
       0.0011995352 -0.019853989 0.012860417 0.01967348
000230 2e 77 90 bb 0d e3 a0 ba 60 fb d9 3c 12 11 0d bd
       -0.0044087386 -0.0012274698 0.026609123 -0.034440108
000240 d1 1b 09 bd a6 7c e7 3c b8 96 90 bb 35 df a1 3b
       -0.033473793 0.02825768 -0.0044124983 0.0049399384
000250 9a 04 37 bc 74 21 63 bb 7d e4 e6 bc 6e e8 89 3c
       -0.011170531 -0.003465739 -0.028185124 0.016834464
000260 ec 3a 5c bc 03 72 9d bc a4 9d 4d bc f8 e2 ff bb
       -0.013441782 -0.019219404 -0.0125497915 -0.007809039
000270 46 b8 cf 3b 0e eb ab bc e0 c2 85 3a c4 ca 0a bd
       0.006339106 -0.020986106 0.0010205172 -0.03388478
000280 4c a8 49 bc 5c 7b 21 3d b0 20 06 bb 60 6a 63 3c
       -0.0123081915 0.039424285 -0.002046626 0.013880342
000290 80 34 ab bb 60 bf 5e 3c 46 63 d1 3c a2 7b 83 3c
       -0.0052247643 0.013595432 0.025560033 0.016050164
0002a0 24 bd 17 3c c1 57 b1 ba 26 2d bf 3c 12 09 c4 bc
       0.009261403 -0.0013530181 0.023336958 -0.023930106
0002b0 95 56 02 bc 43 ab 08 3a d8 40 e0 bc 40 a2 e4 3c
       -0.007955213 0.0005213508 -0.02737467 0.027909398
0002c0 fb f7 e6 bc 96 3c 12 3d 37 4a c7 3c 0c 38 0d 3d
       -0.028194418 0.03570231 0.02432738 0.03447728
0002d0 0a 6c 4c bc 24 fb 84 bc 92 19 ba 3c 1f 91 7f bc
       -0.01247693 -0.016233034 0.022717271 -0.015598564
0002e0 33 70 6c 3b 80 f9 6f 3a d0 4b db 3b c4 9d f3 bb
       0.0036077618 0.0009154305 0.006692387 -0.0074345786
0002f0 59 ae 2a 3b d6 16 c2 3c 59 61 1d 3c db 8c bc bc
       0.002604386 0.02369253 0.009605729 -0.023016384
000300 59 c5 b5 bb 54 10 04 bd 10 68 a5 3c dd de 86 bc
       -0.0055472073 -0.032242134 0.020191222 -0.016463691
000310 a0 c6 97 3c 45 67 67 3c 57 4e 6a 3b d0 21 2c 3c
       0.018527329 0.0141237425 0.003575226 0.010506108

linear2.weight f4 [200, 200]
000000 2f 34 59 bd 80 be 48 ba 1e 5f 33 3d 8a a0 cc bc
       -0.05302828 -0.0007657781 0.043791883 -0.024978895
000010 3c f3 44 bd c0 58 28 3c 7a 12 18 3d c8 e2 ce 3c
       -0.04808353 0.010275066 0.037126996 0.025254622
000020 d8 f0 e5 3c 96 ea df bc b2 30 8e bd 44 45 a2 3c
       0.028068945 -0.027333539 -0.06942882 0.019808419
000030 fa 13 4b 3d 24 3f 8c 3c 7c df 8d bc 66 5b 41 3d
       0.049579598 0.017119952 -0.01731848 0.047206305
000040 22 01 7c 3d bc 54 34 3d 00 68 41 bd a1 77 87 bd
       0.061524518 0.04402612 -0.047218323 -0.06614614
000050 ae e8 6b 3d 31 83 1d bd dd c4 81 bd b0 f0 20 3c
       0.057594948 -0.038455192 -0.06336377 0.009823009
000060 68 30 90 bd 28 f4 68 bc c0 90 b6 3a 88 fa 7d bd
       -0.07040483 -0.014218368 0.0013928637 -0.062006503
000070 63 67 89 3d 70 3d df 3c 4e ea 18 3d 9e a9 76 3d
       0.067091726 0.027250975 0.037332825 0.060220353
000080 69 b1 3b bd ce cb 7c bd c4 7d d3 3c 88 a0 3c bc
       -0.04582349 -0.0617178 0.025816806 -0.011512883
000090 e1 eb 84 bd 02 11 6d bd 20 0a ed bc ca d3 45 3d
       -0.06490303 -0.057877548 -0.028935492 0.04829768
0000a0 89 86 84 3d 18 83 73 3c ec 8f d1 3c a8 00 1e 3c
       0.06470973 0.014862798 0.025581323 0.009643711
0000b0 e3 df 87 bd 00 36 79 b9 fa 3a 72 bd 3d 0a 89 bd
       -0.066345 -0.00023766607 -0.059138276 -0.06691406
0000c0 8e 57 39 3d 61 8f 89 3d 98 a9 e0 3c 00 4f 86 ba
       0.045249514 0.067168005 0.027424619 -0.0010246933
0000d0 8c 6d 0b bc a8 d1 08 3c d8 d5 86 bc 04 f2 62 bc
       -0.008510005 0.008350767 -0.01645939 -0.013851646
0000e0 55 65 8c 3d e0 fa d3 bc d0 03 d6 3b 10 c2 2e bd
       0.06855265 -0.025876462 0.006531216 -0.04266554
0000f0 c8 2a 35 3c 2e 13 69 3d e8 bf 59 3c d0 9e 80 bd
       0.011057563 0.056903057 0.013290383 -0.06280291
000100 88 26 b6 bc a2 81 52 3d 0e 6f 47 bd d1 66 8e 3d
       -0.02223517 0.05139316 -0.048689894 0.069532044
000110 74 07 e2 bc 43 b8 0d bd db 51 81 bd 80 74 32 bd
       -0.027591445 -0.034599554 -0.06314441 -0.043568134
000120 aa 10 88 bc ca a9 26 3d b4 14 e1 bc 7e 78 49 bd
       -0.016609509 0.040689267 -0.027475692 -0.049187176
000130 28 8d bb 3c 0a 98 1c 3d 4c cb 5d bd 28 12 24 3c
       0.022894457 0.038230933 -0.054148957 0.010014094
000140 d9 19 80 bd c4 da 5d bd 3c 8d 10 bc ed 0f 10 bd
       -0.0625493 -0.05416371 -0.008822735 -0.035171438
000150 f3 50 85 bd 52 a2 52 bd 48 3f d1 3c fe 2a 62 3d
       -0.065095805 -0.051424332 0.02554287 0.05521678
000160 e8 23 49 bd 50 c7 4a bd 8a 04 1e 3d f8 c5 f6 3c
       -0.04910651 -0.049506485 0.038578548 0.030123696
000170 82 87 17 bd a1 cc 61 bd 32 df 1a bd de f2 6c bd
       -0.036994465 -0.05512679 -0.037810512 -0.057848804
000180 46 06 5e bd 4a b0 7a 3d 02 45 9a bc 64 74 07 3d
       -0.0542052 0.06120328 -0.018831734 0.033069983
000190 5f 22 73 bd 99 02 4f bd ca a1 e6 bc d0 5a c0 bc
       -0.05935895 -0.050539587 -0.028153319 -0.023480803
0001a0 dc 05 3a 3d 76 d6 5c bd 2d 1d 05 bd 1f a4 77 bd
       0.045415744 -0.053915463 -0.032498527 -0.060459252
0001b0 18 97 5f 3c 40 00 c1 3b b2 82 ec bc c0 4a 1e 3b
       0.013646863 0.0058899224 -0.028870914 0.0024153441
0001c0 27 5f 3f bd 7a 63 80 bc 2c 8e c0 3c ad 2b 8b bd
       -0.046721604 -0.015672434 0.023505293 -0.0679544
0001d0 20 a9 05 3b c6 f8 00 3d 16 00 61 3d 00 23 8b 39
       0.0020394996 0.03148725 0.054931723 0.00026538223
0001e0 d1 01 81 3d 8a ab 5d bd 39 b1 80 3d bc 97 63 bc
       0.062991746 -0.05411867 0.062838025 -0.013891157
0001f0 e1 7c 15 bd 24 c0 b4 3c 4e 49 5b 3d 04 63 94 3c
       -0.036496047 0.022064276 0.053536706 0.01811362
000200 ce 3e 1c 3d 30 10 88 bc fa 84 40 3d fd 65 73 bd
       0.038145833 -0.016609281 0.047001816 -0.059423435
000210 18 da 79 3c 50 d1 fa 3b 2a 1a 83 bd f3 29 21 bd
       0.0152497515 0.0076543465 -0.06401475 -0.039346647
000220 3c 65 7d bc c0 14 db 3c cc b6 a3 3c 0a c1 d6 bc
       -0.015466031 0.026743293 0.019984625 -0.026215095
000230 30 21 93 3c a0 c0 9a 3b 08 f4 79 bd ea 31 59 3d
       0.017960161 0.0047226697 -0.061023742 0.053026117
000240 b0 f5 a3 3c bb 35 4f bd 1c bd 3b 3d dc 1b 88 bd
       0.020014614 -0.05058835 0.045834646 -0.06645939
000250 2b 2b 17 bd 60 4a 47 3b 51 ed 20 bd e4 df a6 bc
       -0.036906403 0.0030409321 -0.039288823 -0.020370431
000260 8c 2e 79 bd b0 64 18 3c c6 ce 07 3d f0 50 94 3b
       -0.060835406 0.0093013495 0.03315618 0.00452625
000270 48 7b 7a 3c 48 a6 29 bd be 91 45 3d f4 f1 0c 3d
       0.015288182 -0.041418344 0.048234694 0.034410432
000280 26 d5 02 bd 70 f8 81 bc 00 5a 36 3b 4e 92 6b 3d
       -0.031941555 -0.015865535 0.002782464 0.057512574
000290 f9 c0 75 bd d4 c5 ee bc 14 8e 68 bd c6 7e 90 bc
       -0.059998486 -0.029147066 -0.05677612 -0.017638575
0002a0 a6 7d 69 3d 5b 3d 1b bd 26 75 87 bd e5 8e 12 bd
       0.057004593 -0.03790031 -0.06614141 -0.035780806
0002b0 19 aa 7f bd 2c b7 13 bd cc 90 9c bc 39 ce 7e bd
       -0.062418077 -0.03606336 -0.019112013 -0.062208388
0002c0 80 94 d1 3c aa 8f 18 bd 40 0a 82 ba 5d f7 8c 3d
       0.025583506 -0.037246384 -0.0009921268 0.06883118
0002d0 ec 16 4b 3d 30 bb 45 3c 08 42 1e 3d 40 4b 48 bc
       0.049582407 0.012068555 0.03863719 -0.012224972
0002e0 67 a1 83 3d 98 ba 7b 3c a0 b8 2d 3c b1 63 4f bd
       0.064272694 0.015364312 0.0106031 -0.050632183
0002f0 4e da 69 3d 9a 96 4b 3d f0 0b 47 bd a0 90 ca 3b
       0.057092957 0.04970417 -0.04859537 0.0061817914
000300 d4 47 48 3d fb dd 8c bd d6 c9 54 bd 40 23 dc ba
       0.048896626 -0.06878277 -0.0519503 -0.0016795173
000310 4c 66 09 3d 4c 66 d4 3c 4e 0f e0 bc f0 c3 cb bc
       0.033544824 0.025927685 -0.027351048 -0.024873704
000320 67 02 63 bd ab ed 2c bd cd 57 3d 3d 02 1e e1 bc
       -0.055422213 -0.042218845 0.04622631 -0.02748013
000330 b2 a6 56 3d 83 21 b3 bc f4 d0 6e 3c e0 7d 16 bd
       0.052405067 -0.021866566 0.0145761855 -0.036741138
000340 7f 2a 12 3c 9b 46 2c bd a5 19 87 3d 3f bb d7 bb
       0.008921265 -0.042059522 0.06596688 -0.006583601
000350 01 84 6f 3d 61 9e 8b 3d 36 13 6c 3d 72 bf 88 3d
       0.058475498 0.06817318 0.05763551 0.0667714
000360 20 c0 e7 3b 42 03 b1 3c 4d c7 d8 3c 43 b7 03 3d
       0.0070724636 0.021607999 0.026462222 0.032157194
000370 86 4d 4d bd 9d 58 1e bd 41 1b 12 bd d1 1f ae 3d
       -0.05012276 -0.038658727 -0.035670523 0.08502162
000380 c9 6b 75 3d 3e ad 99 3d 1d 0a 88 3d 55 7d 80 bd
       0.059917245 0.075037464 0.06642554 -0.06273905
000390 d2 5e 4a 3d 80 ab 85 3b b0 e9 60 3d 8f 5d 28 3c
       0.049406834 0.0040792823 0.05491036 0.010276212
0003a0 15 55 87 bc d6 06 ea 3b 13 f3 04 bd 14 f9 fe bc
       -0.016520062 0.007141928 -0.032458376 -0.03112463
0003b0 ec 82 76 bd 17 75 97 b9 6e 15 08 bd 32 02 13 3c
       -0.06018345 -0.00028888203 -0.033223562 0.008972691
0003c0 26 1c 71 bd a7 cf 9f 3d 8f 10 b5 3d 95 f2 8f 3d
       -0.058864735 0.078032784 0.08841049 0.07028691
0003d0 40 6c 96 3c 34 54 8e 3b c0 75 cb 3c 08 98 67 3c
       0.018362164 0.004343534 0.024836421 0.014135368
0003e0 ef 74 1e 3d 0a 01 bf bc 9e 6c 98 bc 3b 9c 18 bd
       0.038685735 -0.023315925 -0.01860648 -0.037258368
0003f0 0b 81 ad 3d 61 28 e1 bb b3 51 5f 3d 9c 74 0a bd
       0.084718786 -0.0068712686 0.054521274 -0.033802614

linear2.bias f4 [200]
000000 56 b2 82 bd 7c 0e 86 3d 32 7d df bc 50 97 8b 3d
       -0.06381671 0.065457314 -0.027281377 0.0681597
000010 e8 18 01 3d 89 e5 99 3b 68 a9 07 bc 8c 5e 66 bd
       0.031517893 0.004696552 -0.008280136 -0.05624251
000020 ca dd cd bc dd 2e 22 bd f2 81 ac 3c c6 02 b1 3c
       -0.025130171 -0.039595474 0.021058057 0.021607768
000030 d8 8a 15 3d 4a e8 bc bc d0 08 81 3c ac 6a 93 3d
       0.036509365 -0.023059983 0.015751272 0.071980804
000040 48 c9 5f bc b4 b0 ab 3d 25 23 97 3d dc 20 a0 3d
       -0.013658829 0.08383313 0.0737975 0.078187674
000050 a0 27 98 bb 2e 28 6e 3d a4 1d 47 3d 2e 0b a5 3d
       -0.0046433955 0.058143787 0.048612252 0.08058773
000060 f5 58 76 bd bb 23 fb 3c 4c d1 8c 3d 58 05 ad bc
       -0.06014343 0.030656686 0.06875858 -0.021120712
000070 11 f0 29 bd 62 43 a5 bc 46 fb 3a bd 50 b7 de bc
       -0.04148871 -0.020173732 -0.04564979 -0.02718702
000080 aa cc 49 3d 65 7e 46 bd 7c f3 c7 3c 9f 4b 07 bd
       0.04926745 -0.048460383 0.024408095 -0.033031102
000090 fe d0 34 3d fd c1 29 bd d1 6b 0b bd d1 50 a8 bc
       0.044144623 -0.041444767 -0.03403837 -0.020546349
0000a0 d0 3e f6 bb 00 89 f3 3c 8f 9d b5 bc 70 2e 08 bc
       -0.007514812 0.029728413 -0.022169856 -0.008311853
0000b0 da 9c 08 bd 07 65 a0 3c 21 91 9c 3d b4 da 24 bd
       -0.03335271 0.019579424 0.07644869 -0.040247634
0000c0 8f be 61 bd a4 d8 c6 3c 64 18 1d 3b ee d7 1d bd
       -0.05511337 0.024273224 0.0023970837 -0.038536005
0000d0 c0 a3 89 3d f0 d3 a5 3d 0f 8f a6 bc 8d 58 b5 3c
       0.06720686 0.080970645 -0.020331888 0.02213695
0000e0 f9 12 a5 3d 2f 17 37 bd 82 c6 b0 3c c0 e7 72 3c
       0.08060259 -0.044699844 0.02157903 0.014825761
0000f0 fa 7d b4 bc d3 f7 a2 3d a5 54 3d 3d 69 90 0d bd
       -0.022032727 0.07957425 0.0462233 -0.03456155
000100 4f 8f 86 3d 88 79 88 bc ef 45 6b bd e0 f4 cb 3c
       0.06570303 -0.016659513 -0.05743974 0.024897039
000110 32 62 1b 3d 17 31 90 3d 68 25 7b 3c f6 da c5 bc
       0.037935443 0.07040613 0.015328743 -0.02415226
000120 27 0e 97 3c 8c 7c 93 3c 57 dc b8 3c e3 c3 7a 3d
       0.018439366 0.018003725 0.022566004 0.06122197
000130 36 91 6c bd ca 42 1a bd 8c 12 80 bd 0e 82 74 3d
       -0.05775567 -0.03766135 -0.062535375 0.059694342
000140 f0 20 41 bd 0b d0 93 39 6c 4e 99 bc 3c f6 95 3d
       -0.047150552 0.0002819303 -0.018714152 0.07322356
000150 77 c6 68 3d 20 f3 94 bc d4 43 b3 3b 08 e9 8d 3d
       0.056829896 -0.018182337 0.005470732 0.06929213
000160 b9 3f 31 bc 2d 13 20 bd 44 c3 da bc ef 14 81 3c
       -0.010818415 -0.039080787 -0.026704438 0.015757052
000170 05 be 2e 3d eb 59 a3 3d c3 a3 1d bd 6c 1e 8d bd
       0.042661685 0.07976135 -0.038486253 -0.06890568
000180 73 5d a6 bb b9 7b 63 bd 30 29 88 bb 0d c0 0a bd
       -0.005077058 -0.055537913 -0.0041553006 -0.03387456
000190 94 1b 4e bd e9 ed a5 3d d4 33 61 3d 3c 27 63 3d
       -0.05031927 0.081020184 0.054981068 0.05545734
0001a0 d5 f7 84 3d c6 0d 6e 3d 35 bb 92 3d 4e 9c 32 3d
       0.06492583 0.058118604 0.07164613 0.043606095
0001b0 2b ab f1 3b 62 4c 2c bc 77 06 93 bd 00 72 0f bd
       0.007375141 -0.010516258 -0.071789674 -0.03502083
0001c0 a0 99 b2 3c 2e 1f b4 bb ea eb ec bc dd 7b 6e 3d
       0.02180177 -0.005496881 -0.028921086 0.058223594
0001d0 79 3a 18 bd 2d 23 18 3d 9c 20 17 bb e2 2c d2 bb
       -0.03716514 0.03714292 -0.0023060208 -0.006414042
0001e0 a9 93 20 bd de 6a 53 3d 3e 78 94 bd b4 42 13 3c
       -0.03920332 0.05161559 -0.07249497 0.008988071
0001f0 c4 96 7e 3c 03 79 a0 3c 5b 5a 93 bc 16 e9 6e 3d
       0.015538875 0.019588953 -0.01798742 0.058327757
000200 9c 13 0c 3d 2d 61 8a 3d a6 bb dc 3c a0 31 87 bd
       0.03419839 0.06756816 0.026944946 -0.06601262
000210 f1 70 a7 3d 4f 63 2a bb 0f b8 97 bc b4 04 d9 3b
       0.08175839 -0.0025999134 -0.018520383 0.006622875
000220 6d 64 34 bd 6a 7d 08 bd d0 01 d6 3c 32 98 5b 3d
       -0.044041086 -0.03332273 0.026123911 0.05361194
000230 f7 ad 6f bd 1a 75 9a 3c 93 f2 9f 3d 4e 25 83 3d
       -0.058515515 0.018854667 0.07809939 0.064036
000240 71 78 5b 3d 06 fb 64 3d b9 3b 70 bd 9f 6d 28 bd
       0.05358166 0.055903457 -0.058650706 -0.041120168
000250 ef f7 85 bd bb 3a 4f b8 4b 0c 54 bd df c1 9d 3c
       -0.0654143 -4.9407343e-05 -0.051769536 0.019257484
000260 78 3d a8 3d bb 06 05 bd 6a 42 a7 bc ec d3 a8 3d
       0.08214849 -0.03247712 -0.02041741 0.08243546
000270 fa 08 b9 bc 0b 1a 4b bd df 69 46 3a 31 04 12 3d
       -0.022587288 -0.049585383 0.00075688766 0.03564853
000280 92 9e 77 3d 96 d6 61 3d 9d fa 8b bc 7c ee 42 3d
       0.06045396 0.055136286 -0.017087275 0.047590718
000290 13 b0 08 bd 24 42 d1 bc b2 c9 d9 bc 67 b5 ef 3c
       -0.033371042 -0.025544234 -0.026585434 0.029261304
0002a0 94 6c 35 bd 29 0f 2a 3d da aa 71 3d 14 1e 13 3c
       -0.044293 0.041518364 0.059000827 0.008979339
0002b0 48 08 00 bb 78 c0 52 bd 5e 1e 8f bc 85 68 4b bd
       -0.0019536186 -0.051453084 -0.017470535 -0.049660224
0002c0 78 8f 48 bd 7c 1b ec 3c 94 a9 b5 3b 51 e4 bd 3b
       -0.048964947 0.0288217 0.005543897 0.0057950397
0002d0 3d f0 39 bd c6 82 22 3c 7b af 8a 3d d5 64 44 3c
       -0.045395125 0.009918874 0.067717515 0.011986931
0002e0 c9 ec 55 bc f7 9d ab bb 70 2b b0 3d 98 0c a1 3c
       -0.013056942 -0.0052373367 0.08602035 0.019659325
0002f0 c0 42 7c bd 12 3b eb bc 3e 66 03 bc 0b a2 a9 3d
       -0.061587095 -0.02871469 -0.008019982 0.0828286
000300 78 a6 bb bc 2f 90 87 3c f0 c2 0a 3c ef 7d 82 3d
       -0.022906527 0.016548244 0.008469328 0.06371676
000310 f7 1d 2d bd f9 ee fd bc 72 3d 3f bd 3a 2e 0d 3d
       -0.042264905 -0.03099774 -0.04668946 0.034467913

linear3.weight f4 [3, 200]
000000 28 6c b6 3c f8 ca 06 3d fb 57 05 3c 5c ca 12 3d
       0.02226837 0.03290841 0.008138652 0.035837516
000010 2e a0 9b bc 84 0e a3 3b 8b 0b 8d 3c 67 55 88 3d
       -0.018997278 0.0049760956 0.017217418 0.06656914
000020 7a b9 7c bd d9 22 7e bd ab f8 99 3d 2e f6 88 3d
       -0.06170032 -0.062044952 0.07518133 0.0668758
000030 37 21 5b bd 78 17 d7 3c 94 8b e7 bc a7 09 ce bc
       -0.053498473 0.026256308 -0.028264798 -0.025151087
000040 7a 96 af 3d 45 9b ab 3d d0 49 ef 3b a6 e1 47 bd
       0.08573623 0.08379225 0.0073025003 -0.04879918
000050 c0 0a 94 3a a0 7d 33 3c 59 36 b4 3d b9 9a 07 bd
       0.0011294708 0.010955244 0.087994285 -0.03310654
000060 58 78 da 3c ec 3c 0b 3c 57 87 4d 3d 0c 80 3b 3d
       0.026668712 0.008498412 0.0501779 0.045776412
000070 e4 de 2c 3d e0 5a 39 3b 71 69 ec bc 40 1b e2 bb
       0.042204753 0.0028282925 -0.028858872 -0.006900221
000080 06 5d db bc 68 16 13 3d 68 33 54 3c e3 0a 80 3c
       -0.026777755 0.03591004 0.012951709 0.015630191
000090 f3 f3 5a 3d 29 07 2a 3d d4 4b 21 3d d2 33 7f 3d
       0.053455304 0.041510735 0.039378956 0.06230528
0000a0 e1 08 52 bd af c5 ac 3d 49 f6 7e bc 6f 0e b9 3d
       -0.051278 0.08436143 -0.015561649 0.09035956
0000b0 84 e7 4e 3d 1a f8 92 3d b5 e1 f9 3c 50 40 9b 3c
       0.05051376 0.07176228 0.030503133 0.018951565
0000c0 6d 58 c0 bc 66 a3 72 bd f9 ea 50 3d 2b 24 83 3d
       -0.023479665 -0.05923786 0.051005337 0.06403383
0000d0 b6 a4 0d 3d 36 2c 1c 3d 30 7a c5 3c 94 c8 29 3d
       0.03458091 0.0381281 0.024106115 0.04145105
0000e0 62 69 b3 bc 44 68 57 bd 96 a9 88 3b 00 78 de 38
       -0.021900836 -0.05258967 0.004170607 0.00010608137
0000f0 f5 39 14 bd 86 66 96 3d 5b 7d 1a bd fd 2d 0d bd
       -0.036188085 0.073437735 -0.037717205 -0.034467686
000100 2e 98 07 3d 45 54 ef bc 13 6f 81 3c b5 ee 1c 3d
       0.033104114 -0.029214988 0.015800035 0.038313586
000110 6e aa 19 ba 73 b9 3c bd 74 ce 56 bc d0 30 ad 3b
       -0.0005861883 -0.046075296 -0.013110746 0.00528536
000120 37 17 a6 3d 16 95 3d 3d c8 08 a4 3d 19 16 bc 3c
       0.08109897 0.046284758 0.080094874 0.022959756
000130 04 ff 49 3c 2e eb 4b bd 00 7b 59 bd b2 ee 85 3a
       0.012328867 -0.04978483 -0.053095818 0.0010218231
000140 8c 54 ac 3c 0f d1 05 3d 60 95 e1 3c 31 80 96 3d
       0.021036409 0.032670077 0.027537048 0.07348669
000150 1d 05 41 bc f1 31 23 3d ed c8 b0 3d d0 4c 69 3c
       -0.011781004 0.03984255 0.086320736 0.014239505
000160 51 1f 2c bd 14 13 56 bd bd bf df 3c 35 3b cb 3b
       -0.042022053 -0.052264288 0.027313108 0.0062021264
000170 85 1d 84 3c df 28 0e bd df db 3f 3d 26 57 22 3d
       0.016127357 -0.034706946 0.046840545 0.039633892
000180 b5 be 1c bd db 38 b2 3c 4e e3 a4 3c 98 40 16 3c
       -0.03826781 0.021755626 0.020127919 0.009170674
000190 64 05 4d bd 15 a3 4f 3d 6e cf 1b 3d ca 5b 9e 3d
       -0.05005397 0.050692637 0.038039617 0.07732351
0001a0 64 77 d3 3c b7 af 38 3c 95 f2 34 3c a2 5e 14 3d
       0.025813766 0.011272362 0.011044164 0.03622306
0001b0 03 9f 2c bd 61 a5 76 3d c5 14 92 3c c2 85 a1 3d
       -0.042143833 0.06021631 0.01783217 0.078868404
0001c0 a4 b4 f1 bc c8 62 b3 3c d6 fb 0d 3d 56 2b a9 3d
       -0.029505081 0.021897689 0.034663998 0.08260219
0001d0 df e4 dc bc 2e 18 aa 3d 3a 75 72 3d f5 87 36 bd
       -0.026964603 0.08305393 0.059193827 -0.044563252
0001e0 54 63 ff bb a0 34 a8 3d a5 fb d6 bc 63 d4 7a 3d
       -0.0077938233 0.082131624 -0.02624304 0.061237704
0001f0 7a f7 9d 3d c4 37 25 bd b0 af a5 3d 23 25 a4 3d
       0.07713218 -0.040336385 0.0809015 0.08014896
000200 f7 cd 32 3d 96 32 ba 3d 48 8a ce bc 2c 36 e4 bc
       0.043653455 0.0909168 -0.025212422 -0.027857862
000210 e0 91 a1 3d 3d ff 31 3c 2b 99 8d 3a da 34 32 3d
       0.078891516 0.010864076 0.0010803094 0.043507434
000220 79 28 67 bc 46 89 9f 3d a0 64 2c bc f2 15 75 bd
       -0.0141087705 0.07789855 -0.010522038 -0.05983538
000230 e8 51 02 3d 78 51 30 bd 45 2e 84 3d 38 99 08 bc
       0.031816393 -0.043046445 0.06454138 -0.008337311
000240 53 5b ad 3d 00 45 5e 3d 00 9c 37 3c c7 db 97 3d
       0.08464684 0.054265022 0.011206627 0.07414966
000250 28 76 39 3c ca 5d 33 3b 02 e5 80 bd cf 11 5b 3d
       0.011319675 0.0027369135 -0.0629368 0.05348378
000260 71 05 33 bd e8 b1 79 bd 86 8f a3 bc 08 c0 6f 3d
       -0.04370636 -0.06096068 -0.019965898 0.058532745
000270 50 f5 9f 3c d8 d2 56 bc 16 d8 3a bd c2 9f 24 3c
       0.019526154 -0.0131117925 -0.04561623 0.010047855
000280 80 02 92 3b a5 f9 4f 3d 74 2b 02 3d d5 f7 a4 3d
       0.0044558644 0.05077519 0.03177972 0.08055083
000290 df f1 8a 3d ba d9 9a 3c 70 10 99 3d 38 d4 a7 bc
       0.067844145 0.018902648 0.07473838 -0.020486936
0002a0 82 05 88 bd f2 7c a7 3b 4d 70 0a bd 30 b0 81 bc
       -0.066416755 0.00511133 -0.033798505 -0.015831083
0002b0 89 7f 24 bd 0a 25 c6 3c 49 11 07 3d a1 b1 01 3d
       -0.04016069 0.024187583 0.03297547 0.03166354
0002c0 41 cd 28 bd e6 b0 20 3d 62 b6 b6 3d 56 ee 0d 3d
       -0.04121137 0.039231203 0.089215055 0.034651123
0002d0 58 34 b0 3c fe 01 b8 bc 2c c2 e8 bb 18 24 0c bd
       0.021509334 -0.022461887 -0.007103225 -0.03421411
0002e0 58 1c f7 3c 52 29 a6 3d cb d4 a1 3d f8 11 4d bd
       0.030164883 0.0811335 0.07901915 -0.050065964
0002f0 a2 40 8d bd 98 7d 13 3d 52 65 23 bd 28 a6 9c 3d
       -0.06897093 0.036008447 -0.03989155 0.07648879
000300 c6 d8 e2 bc 93 d3 7a 3d 4f ee 14 bd d1 25 fb bc
       -0.027691256 0.06123693 -0.03636008 -0.03065768
000310 13 f9 5e 3d b3 1e 96 3d 28 1b 33 bd 01 a3 67 bd
       0.054436754 0.07330074 -0.04372707 -0.056551937
000320 94 53 8f 3c 9d 01 e6 3b a8 73 7d 3d ae 1c 0c 3d
       0.017495908 0.0070192353 0.061877877 0.03420704
000330 c8 aa 0a bc d9 d5 c2 bc fa 60 57 3c de c2 43 3d
       -0.008463569 -0.023783611 0.01314568 0.04779326
000340 99 df cc 39 6c ae 4f 3d 88 45 07 3d 8f 49 44 3d
       0.00039076505 0.05070345 0.033025295 0.047921713
000350 14 ad e1 3c d6 1e b8 bc fa 67 40 3d 38 77 8d 3d
       0.02754835 -0.022475641 0.04697416 0.06907505
000360 85 22 4d 3c 07 34 77 3d eb 3b b3 bc f3 08 9d bc
       0.012520437 0.06035235 -0.021879157 -0.019169306
000370 28 76 35 3c fc 74 10 3d 76 fc ab ba eb 95 ac 3d
       0.011075534 0.035267815 -0.0013121504 0.08427032
000380 ea 87 7c bd 79 58 82 bc 7d 50 a7 3c 40 1c bd 3a
       -0.061653055 -0.015911328 0.020424122 0.0014427975
000390 96 75 2a 3d 82 12 2f 3d 16 82 c0 3c 43 d8 15 bd
       0.041616045 0.04274226 0.02349953 -0.036583196
0003a0 96 19 12 bd 2a 74 2e bd 50 4d 75 bc d1 38 f8 3c
       -0.035668932 -0.04259125 -0.014972046 0.03030053
0003b0 ef 18 10 3c 63 be f0 3c fc 72 9d 3c 70 e8 99 bc
       0.008795007 0.029387658 0.019219868 -0.018787593
0003c0 94 76 7c bd 16 5e 39 3d 3e 06 3e bd c3 7a 32 3d
       -0.061636522 0.045255743 -0.04639267 0.043574106
0003d0 7b fc 15 3d f8 e3 c8 bc e5 85 78 3d 78 16 8e 3c
       0.036617737 -0.024522766 0.060674567 0.017344698
0003e0 14 b4 9f bc d4 b9 31 bc 7c b0 03 3d 55 5d 25 3b
       -0.019495048 -0.0108475275 0.03215073 0.0025232632
0003f0 ab 4b fc 3c bb b2 f9 3c 80 f6 a6 3d 99 78 f4 bb
       0.0307978 0.030480733 0.08152485 -0.0074606654

linear3.bias f4 [3]
000000 0f 53 8f 3c 9d e0 0e bd 2d 15 bc 3c
       0.01749566 -0.034882177 0.022959316
