src01/color_vec/params/fnn100dim2rgb_net.pth (torch, 18471 bytes, 6 tensors)

linear1.weight f4 [30, 100]
-0.5963023 0.24968734 0.21286497 0.16983347 0.1854555 -0.17725302 0.15337561 0.15716985
-0.13722576 -0.455966 0.6258926 -0.2315913 -0.24514055 0.35235062 -0.23204386 -0.19831216
0.22822812 -0.27299842 -0.17902015 -0.31602955 0.06528628 0.13854288 0.12654595 -0.12581982
-0.0702326 -0.14066646 -0.3069102 0.19678676 0.08614037 0.19054364 0.07469792 -0.2451411
0.41666496 -0.27766356 0.16309209 0.0781989 0.20159239 -0.08782401 -0.065289676 -0.23499835
0.22090848 -0.17910276 -0.4007107 -0.102784306 0.084083 -0.38120383 -0.46644166 0.015269571
0.24951361 0.2647048 0.3311902 -0.2306227 -0.29530123 0.16783379 -0.019384107 -0.1766455
0.59587884 -0.13722949 -0.5403658 -0.15466973 0.2701017 0.1235913 0.51673275 -0.101099275
-0.057191204 0.17290106 0.41278988 0.19367142 -0.26210046 0.17175545 0.57258755 0.041618336
-0.06087119 -0.4392712 0.23329613 0.23768206 -0.30065534 -0.0006058501 -0.52964985 -0.29550216
-0.6297625 0.3034168 -0.009076137 0.16647093 -0.28827578 -0.61600536 0.16926418 0.109509364
0.2257177 0.35236484 0.37050483 -0.09526827 -0.014952511 -0.24127719 0.1499236 0.61339784
-0.18959774 -0.13236418 -0.09138379 0.113240905 -0.6503907 0.26852137 0.184357 0.080511436
0.2817611 -0.2403035 0.039517272 0.25562063 -0.0814261 -0.40184823 0.4742635 -0.28535044
-0.12153464 0.34506845 -0.14387704 -0.1799332 0.19051725 -0.30734754 -0.03767166 -0.40435973
-0.047702823 0.1564517 0.12193573 -0.030089943 0.035621222 -0.06016374 -0.29369444 0.20133726
0.082998045 0.20165844 0.2151295 -0.22148903 0.2625026 -0.26219022 0.04320391 -0.011440831
0.15570359 -0.22362083 -0.11420405 -0.24467382 0.11261202 -0.18717942 -0.43236962 -0.096534036
0.11522465 -0.26901618 -0.57782185 -0.032203656 0.23577426 0.30204198 0.30690998 -0.13766089
-0.48148695 0.08099552 -0.04294403 -0.1887256 0.6015495 -0.1605356 -0.42133108 -0.0074985684
0.12640457 0.04752668 0.50773585 -0.26468703 -0.067498535 0.13267164 0.39012757 0.24355564
-0.34027565 0.3471998 0.63712627 0.018570794 -0.09801597 -0.44273797 0.18819259 0.29322526
-0.16168351 -0.018689642 -0.50722915 -0.312201 -0.6624185 0.36259228 -0.03572596 0.16144618
-0.32625526 -0.5389797 0.2211086 0.063853614 0.24447645 0.4092545 0.34375927 -0.17778225
0.085542835 -0.33778384 0.25094742 0.60095507 -0.16081488 -0.20260365 -0.22025652 0.22838093
-0.5418155 0.041348763 0.44634587 -0.007711751 0.25693524 -0.13352482 0.11679611 0.046769474
0.017242558 -0.32704723 0.58478874 -0.13935423 -0.024928097 0.31390506 -0.38574207 -0.22870441
0.16743395 -0.2916357 -0.021864709 -0.37822586 -0.03433587 0.027623473 0.13808076 -0.12880707
-0.10726095 -0.05604546 -0.11630115 0.23632942 -0.12324115 0.2796992 0.14790301 -0.10429409
0.3275294 -0.29145026 0.075574294 -0.14573942 0.049316507 -0.25510758 0.0679206 -0.05601884
0.2656986 -0.3051407 -0.2950276 -0.11871867 -0.14656988 -0.56826264 -0.48537463 0.20693447
0.18559772 0.06370156 0.23075323 -0.25281698 -0.38983005 0.08353212 0.13478416 -0.08474618
00000000: 44a7 18bf 0aae 7f3e 46f9 593e d3e8 2d3e
00000010: 0ce8 3d3e d181 35be 7f0e 1d3e 22f1 203e
00000020: e984 0cbe 6074 e9be 7f3a 203f 4526 6dbe
00000030: 2006 7bbe 4d67 b43e e89c 6dbe 5812 4bbe
00000040: a2b4 693e 73c6 8bbe 0f51 37be a0ce a1be
00000050: d0b4 853d 2fde 0d3e 4395 013e e9d6 00be
00000060: 1cd6 8fbd de0a 10be 5523 9dbe 7882 493e
00000070: 5d6a b03d df1d 433e 39fb 983d 4506 7bbe
00000080: 1c55 d53e eb29 8ebe 9d01 273e bf26 a03d
00000090: 3c6e 4e3e 13dd b3bd 98b6 85bd 68a3 70be
000000a0: d535 623e b766 37be f429 cdbe 9480 d2bd
000000b0: b533 ac3d 262d c3be 71d1 eebe 392d 7a3c
000000c0: 7f80 7f3e 6387 873e c391 a93e 5b28 6cbe
000000d0: b931 97be 9fdc 2b3e 6bcb 9ebc 8fe2 34be
000000e0: 848b 183f e385 0cbe 6a55 0abf be61 1ebe
000000f0: c54a 8a3e 6f1d fd3d 9948 043f 230d cfbd
00000100: 5341 6abd fa0c 313e 3259 d33e cd51 463e
00000110: 0832 86be a9e0 2f3e 1995 123f fd77 2a3d
00000120: 1254 79bd 28e8 e0be 2ee5 6e3e ed62 733e
00000130: 7fef 99be e9d1 1eba 2297 07bf 0f4c 97be
00000140: 1d38 21bf 7259 9b3e 14b4 14bc 5b77 2a3e
00000150: e298 93be 87b2 1dbf 9753 2d3e 7246 e03d
00000160: 8a22 673e 2a69 b43e cfb2 bd3e 031c c3bd
00000170: 60fb 74bc 5e11 77be 9285 193e a407 1d3f
00000180: e925 42be 7a8a 07be 6d27 bbbd d9ea e73d
00000190: 0180 26bf a27b 893e 15c8 3c3e 2ee3 a43d
000001a0: fe42 903e 1f12 76be dddc 213d b5e0 823e
000001b0: bac2 a6bd 0dbf cdbe aad2 f23e 7419 92be
000001c0: 27e7 f8bd d0ac b03e 8154 13be 6940 38be
000001d0: f416 433e a85c 9dbe 994d 1abd 3d08 cfbe
000001e0: 0964 43bd e034 203e 71b9 f93d 2f7f f6bc
000001f0: 8fe7 113d 416e 76bd 1e5f 96be 5b2b 4e3e
00000200: e1fa a93d 8d7f 4e3e e84a 5c3e 05ce 62be
00000210: be66 863e cc3d 86be 95f6 303d 5372 3bbc
00000220: c370 1f3e dcfc 64be d0e3 e9bd c68b 7abe
00000230: 21a1 e63d f6ab 3fbe 8d5f ddbe a3b3 c5bd
00000240: e7fa eb3d 7dbc 89be 22ec 13bf fbe7 03bd
00000250: cf6e 713e 3fa5 9a3e 4e23 9d3e faf6 0cbe
00000260: 7585 f6be fbe0 a53d 14e6 2fbd 4941 41be
00000270: 26ff 193f 7263 24be b5b8 d7be 8db6 f5bb
00000280: 3370 013e 56ab 423d fafa 013f 0f85 87be
00000290: ac3c 8abd 13db 073e cdbe c73e a666 793e
000002a0: 9c38 aebe 2cc4 b13e b51a 233f c721 983c
000002b0: 99bc c8bd 8dae e2be 8fb5 403e 9f21 963e
000002c0: 5d90 25be 051b 99bc c5d9 01bf cfd8 9fbe
000002d0: 4294 29bf b2a5 b93e 6255 12bd 2652 253e
000002e0: ee0a a7be 93fa 09bf 4b6a 623e afc5 823d
000002f0: 0958 7a3e ce89 d13e 3701 b03e 8d0c 36be
00000300: 1531 af3d 01f2 acbe 2e7c 803e 31d8 193f
00000310: a8ac 24be 5577 4fbe ed8a 61be b1dc 693e
00000320: 6cb4 0abf 525d 293d 7287 e43e dbb2 fcbb
00000330: 048d 833e bbba 08be cd32 ef3d 5991 3f3d
00000340: 4440 8d3c bc72 a7be b7b4 153f e0b2 0ebe
00000350: 0236 ccbc 2ab8 a03e fc7f c5be 7d31 6abe
00000360: ce73 2b3e 4651 95be 9e1d b3bc d2a6 c1be
00000370: c5a3 0cbd 9f4a e23c 0b65 0d3e 00e6 03be
00000380: a1ab dbbd ed8f 65bd 4c2f eebd 5700 723e
00000390: db65 fcbd bc34 8f3e e373 173e 2498 d5bd
000003a0: efb1 a73e f838 95be b2c6 9a3d b73c 15be
000003b0: 1b00 4a3d 769d 82be f519 8b3d 0374 65bd
000003c0: a609 883e 673b 9cbe dc0d 97be c622 f3bd
000003d0: 6a16 16be a979 11bf 0683 f8be a1e6 533e
000003e0: 540d 3e3e f775 823d 934a 6c3e 3a71 81be
000003f0: ce97 c7be e312 ab3d dc04 0a3e 688f adbd

linear1.bias f4 [30]
0.3987537 0.37479082 0.37227616 0.26101387 0.28656045 0.28223568 0.367386 0.29819402
0.31790954 0.31042737 0.05933462 0.27438354 0.28678152 0.31186026 0.2560594 0.28062835
0.28801227 0.0035561994 0.4063489 0.28805643 0.38161182 0.28886423 0.2250385 0.24169828
0.4103345 0.31780985 -0.071181744 0.4278779 0.37272617 0.3481917
00000000: 7229 cc3e 95e4 bf3e fb9a be3e 9ca3 853e
00000010: 0db8 923e 3281 903e 051a bc3e e3ac 983e
00000020: 0ac5 a23e 56f0 9e3e dc08 733d 007c 8c3e
00000030: 07d5 923e 26ac 9f3e 381a 833e 85ae 8f3e
00000040: 5876 933e 200f 693b f70c d03e 227c 933e
00000050: a062 c33e 03e6 933e 7e70 663e c17f 773e
00000060: 5d17 d23e f9b7 a23e bcc7 91bd d012 db3e
00000070: f7d5 be3e 2f46 b23e

linear2.weight f4 [30, 30]
-0.17230618 -0.14481656 -0.08202776 -0.021344023 0.14501853 -0.0015852852 0.095606655 0.049729023
0.10884662 -0.030760668 -0.015108346 0.14922427 -0.17250939 0.11583475 -0.05532138 -0.11036828
0.11949481 0.110851906 -0.13796565 -0.087532096 -0.004635426 0.16019979 -0.18096605 -0.19622791
-0.037606176 0.04470654 0.12655132 -0.0394062 -0.016952226 0.010129152 -0.08117199 -0.17533965
0.16186337 -0.04796662 0.02689681 0.031658217 -0.18510652 0.18029362 0.02681981 0.14466938
0.1574137 0.14422248 -0.120255396 0.1540688 0.15181057 -0.1306148 -0.1812104 0.10152476
-0.1498745 -0.18234015 -0.15566078 -0.09785462 -0.05530913 -0.1612952 -0.0061422335 -0.122291766
0.05309986 -0.048658337 0.033623695 0.16931301 -0.057965416 0.14694154 -0.15626632 -0.060009677
0.14242676 0.124916926 -0.19454922 -0.12283732 0.049061775 0.163244 -0.16918725 0.098701075
-0.04799947 0.16529505 0.017804444 -0.03455028 -0.1157572 -0.08818602 0.09301055 -0.119585685
-0.095007025 -0.086112715 -0.15989557 -0.10846571 -0.16075161 0.055008125 -0.08479706 0.079699844
-0.17222983 0.0973226 0.42420194 0.23902167 0.3390465 0.40651646 0.54896873 0.38030964
0.306903 0.4255254 0.20402816 0.35742533 0.060092352 0.21364935 0.49488238 0.47410843
0.4777305 0.48594442 0.30313483 -0.09550192 0.48315698 0.49935836 0.3984998 0.33681616
0.43320647 0.29905692 0.27295992 0.27445316 0.11270714 0.38374949 0.45138627 0.27943936
0.45904052 0.23172076 0.28353956 0.22252122 0.46164405 0.45766434 0.51328075 0.50340724
0.29636687 0.22910643 0.012541344 0.5339676 0.26216492 0.4255752 0.53516215 0.3037955
0.53343916 -0.12064663 0.41537926 0.29384583 0.24837613 0.43733895 0.23774503 0.3926742
0.43099594 0.46775895 -0.11139682 0.3933383 0.34122676 0.24630548 0.4654113 0.406257
0.5785084 0.4234047 0.3404602 0.3434328 0.37689987 0.42549762 0.41142404 0.47263554
0.077513784 0.46734825 0.51506287 0.4338551 0.26920918 0.3638099 0.41731966 -0.038924076
0.32690695 0.32789513 0.50467706 0.36732036 0.32979718 0.36561504 0.24708688 0.34219062
-0.08377525 0.21754472 0.35243356 0.5327166 -0.18304731 -0.19167385 0.1653275 -0.16585006
0.10289281 0.005117615 0.12529112 0.102668196 -0.017434241 -0.13475075 -0.088672586 0.12820967
0.006149128 0.14084055 0.04271602 -0.17586794 -0.10978835 0.15683393 -0.1930077 0.03799883
0.12066091 0.07174451 -0.14176546 -0.13393156 -0.023673438 -0.18827944 -0.19025546 0.06804663
0.10165605 0.11101437 0.3311512 0.4369738 0.5236307 0.19547708 0.52769345 0.18723229
0.32928 0.51086724 0.1838428 0.469294 -0.123289384 0.41748622 0.5316789 0.40977037
0.20217904 0.5588967 0.5135923 -0.15964963 0.3088633 0.48766142 0.50892675 0.5142231
0.5103075 0.31523716 0.28203693 0.4213872 -0.044040926 0.21130824 0.2853226 0.4373722
-0.16727865 0.08333446 -0.15058906 -0.10270508 -0.14437754 -0.039997693 -0.030652614 0.14648265
0.07771682 -0.14473373 0.12501067 0.0018852202 -0.1670674 0.14883551 -0.03229091 0.09403109
00000000: 0871 30be cb4a 14be 2cfe a7bd a9d9 aebc
00000010: bd7f 143e 58c9 cfba 6ccd c33d a9b0 4b3d
00000020: faea de3d ccfd fbbc ff88 77bc 3fce 183e
00000030: 4da6 30be c53a ed3d ac98 62bd c408 e2bd
00000040: b2b9 f43d 5306 e33d de46 0dbe 0744 b3bd
00000050: c6e4 97bb 6a0b 243e 2a4f 39be f8ef 48be
00000060: ef08 1abd 341e 373d ab96 013e 6568 21bd
00000070: 65df 8abc bef4 253c 803d a6bd 3d8c 33be
00000080: 83bf 253e a678 44bd b356 dc3c 0cac 013d
00000090: 908c 3dbe e49e 383e 38b5 db3c 3624 143e
000000a0: 0f31 213e 0faf 133e 7648 f6bd 36c4 1d3e
000000b0: 3b74 1b3e e3bf 05be 388f 39be 37ec cf3d
000000c0: b378 19be 60b7 3abe 8a65 1fbe 0168 c8bd
000000d0: d48b 62bd 922a 25be ca44 c9bb 1b74 fabd
000000e0: 3d7f 593d f74d 47bd 00b9 093d 6460 2d3e
000000f0: 256d 6dbd d877 163e 4704 20be b5cc 75bd
00000100: 52d8 113e 72d4 ff3d e937 47be 2292 fbbd
00000110: 00f5 483d 6f29 273e 6c3f 2dbe ca23 ca3d
00000120: 189b 44bd 1b43 293e a0da 913c 9884 0dbd
00000130: 1c12 edbd df9a b4bd 517c be3d 57e9 f4bd
00000140: 0b93 c2bd dd5b b0bd aabb 23be 4523 debd
00000150: 129c 24be 3350 613d 15aa adbd ac39 a33d
00000160: 045d 30be 1251 c73d ff30 d93e 19c2 743e
00000170: 8197 ad3e ed22 d03e 3789 0c3f f2b7 c23e
00000180: 6422 9d3e 77de d93e c2ec 503e 7400 b73e
00000190: 6623 763d e5c6 5a3e 3961 fd3e 57be f23e
000001a0: 1899 f43e b5cd f83e 7d34 9b3e 8396 c3bd
000001b0: 5a60 f73e e6ab ff3e 2a08 cc3e 2b73 ac3e
000001c0: 3dcd dd3e fd1d 993e 67c1 8b3e 2085 8c3e
000001d0: 00d3 e63d d07a c43e 1a1c e73e ad12 8f3e
000001e0: 5c07 eb3e 3548 6d3e 192c 913e 9adc 633e
000001f0: 9c5c ec3e fb52 ea3e 5e66 033f 4cdf 003f
00000200: 66bd 973e e09a 6a3e 367a 4d3c 1ab2 083f
00000210: 7b3a 863e fee4 d93e 6300 093f 158b 9b3e
00000220: 788f 083f 9515 f7bd 97ac d43e f672 963e
00000230: 5056 7e3e e4ea df3e 6f73 733e 980c c93e
00000240: 80ab dc3e 1a7e ef3e 0424 e4bd a363 c93e
00000250: 46b5 ae3e 8137 7c3e 644a ee3e eb00 d03e
00000260: 2019 143f 80c8 d83e cd50 ae3e 6dd6 af3e
00000270: 05f9 c03e d3da d93e 2ca6 d23e 49fd f13e
00000280: 8cbf 9e3d 4548 ef3e 29db 033f 4122 de3e
00000290: c9d5 893e 4b45 ba3e ecaa d53e da6e 1fbd
000002a0: 5960 a73e dfe1 a73e 8432 013f 6a11 bc3e
000002b0: 2ddb a83e e531 bb3e 5804 7d3e 9c33 af3e
000002c0: 5c92 abbd 0bc4 5e3e 2c72 b43e 1d60 083f
000002d0: c170 3bbe 2646 44be 9d4b 293e 99d4 29be
000002e0: 77b9 d23d abb1 a73b 514c 003e b443 d23d
000002f0: 41d2 8ebc 1afc 09be f999 b5bd 6549 033e
00000300: a07e c93b 8138 103e fef6 2e3d ba16 34be
00000310: b7d8 e0bd 1399 203e cfa3 45be a9a4 1b3d
00000320: 111d f73d c9ee 923d f72a 11be 5b25 09be
00000330: ccee c1bc 53cc 40be 54d2 42be 085c 8b3d
00000340: 0c31 d03d 815b e33d a68c a93e 08bb df3e
00000350: a90c 063f 252b 483e eb16 073f d2b9 3f3e
00000360: 6397 a83e 32c8 023f 4941 3c3e 4e47 f03e
00000370: 257f fcbd c1c0 d53e 1c1c 083f 6ccd d13e
00000380: 0608 4f3e db13 0f3f c97a 033f 317b 23be
00000390: 5523 9e3e c2ae f93e 0649 023f 20a4 033f
000003a0: 83a3 023f c466 a13e 2567 903e 10c0 d73e
000003b0: 4264 34bd 3061 583e ce15 923e 40ef df3e
000003c0: 184b 2bbe 42ab aa3d 0534 1abe 0a57 d2bd
000003d0: b5d7 13be 9fd4 23bd 311b fbbc 8cff 153e
000003e0: ff29 9f3d 1435 14be cc02 003e 7e19 f73a
000003f0: b713 2bbe 5668 183e 7943 04bd 5f93 c03d

linear2.bias f4 [30]
-0.11377152 0.06437406 -0.16739032 0.23401234 0.35286748 0.28099123 0.0338504 0.37351325
-0.15441185 0.4442679 0.2990426 -0.12791824 0.11661182 0.4024697 -0.057515897 0.29907736
-0.13390617 0.36694244 0.02502631 -0.0372504 0.45653003 0.08805575 -0.113034934 0.08466054
0.16693741 0.030087348 0.17151356 0.42037463 0.010188851 -0.18186925
00000000: 0b01 e9bd 8cd6 833d 5e68 2bbe eea0 6f3e
00000010: 0cab b43e 15de 8f3e b8a6 0a3d 213d bf3e
00000020: 241e 1ebe 1577 e33e 1d1c 993e 00fd 02be
00000030: 2ed2 ee3d 8210 ce3e ca95 6bbd ab20 993e
00000040: b31e 09be e1df bb3e fa03 cd3c e093 18bd
00000050: 4ebe e93e 9356 b43d dc7e e7bd 8162 ad3d
00000060: a4f1 2a3e be79 f63c 40a1 2f3e 583b d73e
00000070: 23ef 263c ef3b 3abe

linear3.weight f4 [3, 30]
-0.14234976 0.16953954 -0.08910638 0.49825233 0.5266885 0.42156324 -0.13198067 0.39734727
-0.05649831 0.43023762 0.6338071 0.112149924 0.49033484 0.560707 -0.088648714 0.5279628
-0.14447017 0.38942552 -0.09950095 -0.016691312 0.5316455 0.3357247 -0.13289416 0.074144274
0.50288844 -0.06554026 0.41816312 0.41084754 -0.118430555 0.09430078 -0.15528639 -0.14840409
-0.01274146 0.362376 0.45632666 0.32411852 -0.097912036 0.47558767 -0.115276136 0.45248008
0.38567117 -0.16129579 0.36297956 0.3893698 -0.037691243 0.3617446 0.061993904 0.46402007
-0.047759946 0.16320726 0.16957036 0.24884775 -0.038716376 -0.06697314 0.30553204 -0.018726032
0.40803266 0.36399662 -0.021794196 -0.07248292 0.020959709 -0.03256813 0.052982785 0.3034589
0.2951984 0.36177456 -0.10936523 0.31202194 -0.085563615 0.18901373 0.14706174 0.029532962
0.38596693 0.27892405 0.0074934014 0.35170257 -0.04681794 0.36432928 0.05442978 0.058827236
0.42693156 0.13006312 -0.10746108 -0.041734144 0.14866722 0.026234569 0.10013129 0.34386244
-0.08918984 -0.16146596
00000000: 23c4 11be c69b 2d3e 687d b6bd ee1a ff3e
00000010: 0fd5 063f 23d7 d73e f125 07be 1a71 cb3e
00000020: c66a 67bd 1b48 dc3e 2f41 223f dcae e53d
00000030: 2b0d fb3e 7e8a 0f3f 758d b5bd 9228 073f
00000040: fdef 13be c862 c73e 27c7 cbbd 38bc 88bc
00000050: eb19 083f 1ce4 ab3e 6815 08be f4d8 973d
00000060: 4cbd 003f f939 86bd 7a19 d63e 9c5a d23e
00000070: b88b f2bd c420 c13d 6503 1fbe 3ef7 17be
00000080: 8fc1 50bc 5989 b93e a6a3 e93e ddf2 a53e
00000090: 1b86 c8bd 3a80 f33e e515 ecbd 78ab e73e
000000a0: b176 c53e b92a 25be 75d8 b93e 7a5b c73e
000000b0: 2262 1abd 9736 b93e 52ed 7d3d 0a94 ed3e
000000c0: ef9f 43bd ce1f 273e daa3 2d3e f2d1 7e3e
000000d0: 1095 1ebd 3729 89bd b26e 9c3e 5667 99bc
000000e0: a8e9 d03e c45d ba3e be89 b2bc ed71 94bd
000000f0: b2b3 ab3c 2966 05bd 7a04 593d f75e 9b3e
00000100: 3f24 973e 843a b93e e1fa dfbd 57c1 9f3e
00000110: fa3b afbd d18c 413e 5a97 163e 1cef f13c
00000120: 759d c53e 22cf 8e3e 358b f53b 5c12 b43e
00000130: 2bc4 3fbd 5e89 ba3e c3f1 5e3d d4f4 703d
00000140: c696 da3e 442f 053e 8e14 dcbd 6cf1 2abd
00000150: 383c 183e e1e9 d63c a211 cd3d bd0e b03e
00000160: 2aa9 b6bd 5557 25be

linear3.bias f4 [3]
0.3699412 0.24974497 0.090503134
00000000: ef68 bd3e 25bd 7f3e b559 b93d
