src01/color_vec/params/fnnRGBdim2rgb_net.pth (torch, 2983 bytes, 6 tensors)

linear1.weight f4 [10, 3]
00000000: 9a1e c2be 4e53 463f b519 b13f 4a61 67bd
00000010: 3d7b 55bd 57a5 89be ead7 643f 8046 c83f
00000020: 2ece bc3f f3f5 0c3f 6c22 b43f f74f d83f
00000030: 38c1 953f 1bef 8a3f 4fa1 e93f 1784 3f3e
00000040: 2fb9 993f e604 953f 5f56 643f 0c57 c93f
00000050: 7dbd fa3f 4ced 38be 009a 47bd 8213 b4be
00000060: 8073 6f3e 6277 a53f feb2 b13f 2b53 a33f
00000070: 8da4 c83f 336a 6d3f
-0.37913972 0.7747086 1.383597 -0.056489266 -0.052119482 -0.26883957 0.8939196 1.5646515
1.4750421 0.5506279 1.4073005 1.6899403 1.1699591 1.0854219 1.8252352 0.18702732
1.2009639 1.164212 0.8919429 1.572969 1.9589077 -0.18059272 -0.04873085 -0.35171133
0.23383904 1.2927058 1.3882749 1.2759756 1.5675217 0.9274017

linear1.bias f4 [10]
00000000: d9b0 d93e 5f67 943e 41ac 933f e05b 933f
00000010: a0e8 7e3f e08b e03f 36dd a63f 84da 0bbe
00000020: 34e9 e93f 3167 fc3f
0.42517737 0.28985116 1.1536943 1.1512413 0.9957371 1.7542686 1.3036258 -0.13657576
1.8274293 1.9718992

linear2.weight f4 [10, 10]
00000000: f880 813f 2e6d 4dbe 3620 c63f 817a bf3f
00000010: 6915 a53f 3d83 a03f f4da af3f 862d 81be
00000020: bc16 cc3f ba71 ae3f bae2 a0bd df87 9abe
00000030: d778 13be a8ed ef3d bf36 91be 4288 5f3e
00000040: e03a 7cbe eee2 08be fed4 b7bd 79fc 3dbe
00000050: 83e9 c13d 0689 583e e701 4abe ef43 573e
00000060: d23b b3be f26a c6bd a661 2d3e 2feb 34be
00000070: ce9d 38be d539 6dbe e84d 1cbd 80ec bf3d
00000080: c27d 403e c27b 9cbe 9011 babc a689 9cbe
00000090: b5d8 1bbe 6479 8d3d 0657 f2bd 4c2a 86be
000000a0: 85ce 87be ca05 df3c 644d 13bd 86e8 83bc
000000b0: 0ddb 383e 2413 3a3e 2134 8dbe 00ba 4dbb
000000c0: 75cc 84be a1cc 043d 2b58 963e e8ea 4ebd
000000d0: bad1 5c3e a513 0cbe c54e 97be d041 b03d
000000e0: d091 8abe a0be d03c d0e7 5fbd e72f 15be
000000f0: d62a 00be a04f 4e3c e55e 1abe 3bbe 9ebe
00000100: 8060 ae3b 1c7f 03be e052 013c f09f 9b3d
00000110: b055 f0bd 9ca8 ac3d f85a 82be 2c66 ccbd
00000120: f0a2 713d 7d8f 53be 84c4 8ebd c40d 83be
00000130: 30bd 413d 7a77 0e3e 9e99 7a3e ad95 88be
00000140: a6d5 a9be 4c0a 6b3e 3e5d a4be ea53 d73d
00000150: 6fa0 a13c a611 1c3e 1372 023e 3c26 93bd
00000160: c814 76be 360f 21be d721 8c3f f37a 69bc
00000170: 3d07 a83f aa2c c33f 5987 bd3f ee41 ca3f
00000180: 920a ad3f d0bf 9d3d 0560 9b3f 52f8 a03f
1.0117483 -0.2006118 1.547858 1.495926 1.2897159 1.2540051 1.3738694 -0.25230044
1.5944438 1.3628457 -0.07855745 -0.30181786 -0.14401565 0.11715251 -0.2836208 0.21829322
-0.24631834 -0.13367817 -0.08976172 -0.18553342 0.09468367 0.2114602 -0.19727288 0.21022008
-0.35006577 -0.09688367 0.16931781 -0.1766784 -0.18028948 -0.23166592 -0.038160235 0.09371281
0.18797973 -0.3056317 -0.022713453 -0.30573767 -0.15219386 0.06907919 -0.11833005 -0.26204145
-0.2652475 0.02722444 -0.035962477 -0.016102087 0.18052311 0.18171364 -0.27578834 -0.0031391382
-0.25937238 0.03242171 0.29364142 -0.050516993 0.2156438 -0.13679369 -0.29552284 0.08606303
-0.2706437 0.025481522 -0.054664433 -0.14569055 -0.1251634 0.012592226 -0.15075262 -0.3100451
0.0053215623 -0.12841457 0.007893294 0.07598865 -0.117350936 0.08430597 -0.2546003 -0.09980425
0.05899328 -0.20660205 -0.06971076 -0.2559644 0.047299564 0.13912764 0.24472663 -0.26676694
-0.33170813 0.22953147 -0.32102388 0.10514052 0.019729821 0.15241107 0.12738828 -0.07185027
-0.24031365 -0.15728459 1.0947827 -0.014250505 1.3127209 1.5248005 1.480693 1.580137
1.3518851 0.07702601 1.2138678 1.2575781

linear2.bias f4 [10]
00000000: 0803 5b3f fcb0 6cbe 209d c4bd b1e5 95be
00000010: 95da e73d c8b7 8a3d aa5e 48be c079 13be
00000020: f79f 05bd 6cf3 763f
0.855515 -0.23114389 -0.09600282 -0.29276803 0.11320988 0.06773335 -0.19567361 -0.14401913
-0.032623257 0.9646518

linear3.weight f4 [3, 10]
00000000: eef4 dc3f d827 49be 4801 5abc b276 6e3e
00000010: 9d40 15be 8227 6f3e 2a31 75be e275 4f3e
00000020: dfac 8f3d 7598 f43f c013 bd3f 58f9 08bd
00000030: 38e3 fbbd c739 853e 7dcc 8ebe 26ce 4d3e
00000040: e830 5ebd 508a 27bd d0f9 40be bcf8 c03f
00000050: 5215 8e3f 2031 0ebc 41bf 1c3b 6021 233e
00000060: 443b 8abd a42d 1abe 8a1e 1bbe 8dbf 1abe
00000070: 3105 bfbd 0125 973f
1.7262247 -0.19644105 -0.01330597 0.23287466 -0.1457543 0.23354915 -0.23944536 0.20259812
0.070153944 1.9109026 1.4771652 -0.033440918 -0.12299198 0.26020643 -0.27890387 0.2009817
-0.05424586 -0.04090339 -0.18845296 1.5075908 1.1100256 -0.0086787045 0.0023917707 0.159307
-0.06749585 -0.15056473 -0.15148368 -0.15112133 -0.09327162 1.1808168

linear3.bias f4 [3]
00000000: 34c0 833f 6788 e13e 2d30 033f
1.0293031 0.4404938 0.51245385
